tutorials/data/isotropic_best_model_checkpoint.pth (torch, 416653 bytes, 21 tensors)

energy_net.0.weight f4 [128, 5]
0.00052419706 -0.001055054 0.00019094985 0.001965049 0.00034214326 0.0007905485 -0.0006194183 0.0005288683
0.00054482016 -0.0008516205 0.0022466597 -0.0011683862 0.0010933534 1.267345 -1.0152569 -0.0014918154
-9.801342e-05 -0.00013200477 -0.0021545696 0.0001363128 -0.0025668398 0.0015487106 0.0020104544 0.00019701687
0.002059806 0.00025010307 -0.0011631458 -0.00053784007 0.0016177833 0.00028356424 0.0009894898 -0.0009329347
-1.6334157e-05 0.00080323685 -0.0031134158 -0.0030473098 0.0029051176 0.0006258464 -0.004238465 0.0023999552
-0.0014609685 -0.0024199334 0.00020595359 -0.0005741513 -0.00048668924 -0.0020060495 0.00041073214 0.0023389382
-0.0007103661 0.0012689194 0.00094825105 -0.0035787388 2.6333057e-06 0.0071513304 -0.0016920033 -3.3520213e-05
-0.00013680356 0.00026092335 0.0005994497 0.00073126704 -0.0007888711 0.0010018062 0.00031108275 -0.0006455637
0.0015823368 -0.0008696894 -0.0009496604 0.00063620805 0.003245981 3.0884672e-05 0.0020747455 -0.0015347818
-0.0008664407 0.002102322 -0.0012265973 0.0011098558 -0.00092931825 5.244258e-05 0.0012496712 -0.00072528445
-0.00087177625 -4.7462804e-06 0.0038317512 0.41786787 -0.26869896 -0.0005097953 0.00039012366 -0.000104341496
-0.000110470995 0.0008749787 -0.0008212235 -0.00030268915 0.0037028845 0.36609036 -0.28458503 0.0013693662
-0.00130222 -0.0015885559 0.0032032148 -0.0019094759 0.0019414027 -0.0010202047 -0.0023823988 0.0014376026
-0.0023714069 0.0013444058 -0.002018348 1.599511e-05 0.003206423 -0.0009527275 0.0027300569 -0.0021112526
-0.00081127515 -0.00093323376 0.005118055 -0.00012359767 -0.0005615975 0.0002931905 -1.092635 0.86323345
0.0012578996 0.0016394884 -0.0001300668 0.0009082128 0.0012141266 -0.0013670151 0.0019386671 -0.0011827
-0.0022379225 0.0016865178 0.0021559238 -0.0019162428 -0.0005846602 0.005460453 0.0006362883 -0.0010514343
-0.0017677383 -0.0007129975 -0.0015814111 -0.0019704646 -0.00026183645 0.0011708968 0.0005888318 -0.001417514
0.00015128558 0.0007108572 -0.0007972976 0.0017898631 0.73883694 0.13142921 0.0018902903 -0.0011406252
-0.0006991877 0.0008398633 0.0007503796 0.0010240318 -0.001729289 0.0021670924 -0.67929846 0.48501524
-0.0015575612 0.0023137177 0.0009483351 -0.0050864536 0.0015979666 0.00065108435 -0.0018363707 0.0015760206
-0.6997147 0.30123898 -0.0021840925 0.0029118038 -2.056949e-05 -0.004651354 0.0025028482 -0.0008772108
-0.0011187128 0.0018991259 0.0027930313 0.00090135593 -0.0005433372 -0.002177516 -0.00039372442 0.00074324745
-0.00073082413 0.0019651654 -0.00051653857 -0.0017008956 -0.0007997867 -0.0019759752 -0.0019275113 0.0010606758
0.00195451 0.0005815086 0.0021580034 0.002770436 -0.0018639276 -0.0010399088 0.002054752 -0.00034351213
0.00071369205 -0.0007917784 0.0017369561 0.7371263 0.13529532 -0.00013050536 0.00016480837 0.00041413654
-0.0016359 -0.0014849418 0.0020059326 -0.0018937086 -0.0005146149 0.0032747418 -0.0010492355 -0.0002949634
-0.00048654113 0.00061885087 0.0046647433 -0.0005643581 0.0010095503 0.0005500125 -0.0019479387 -0.0026100741
0.0010650912 0.0017623759 -0.0011814808 0.0012147902 -0.00015748992 2.2818698e-05 0.0025102638 -0.0031641028
-0.0007661695 0.004642016 -0.0028185055 -0.0009907522 0.0017337486 -0.0015090898 0.56159145 -0.38785064
0.00039743946 0.0003290276 -0.0002887929 0.00028351383 -0.00019994749 4.603256e-06 0.0014627129 0.0009029726
0.0010223241 0.0030670404 0.00071884814 -0.00080565986 0.0017683995 0.7378411 0.13605018 -0.0026403419
00000000: 456a 093a bd49 8aba b639 4839 0dc8 003b
00000010: b161 b339 d03c 4f3a 7560 22ba c0a3 0a3a
00000020: 43d2 0e3a 493f 5fba b23c 133b 8924 99ba
00000030: da4e 8f3a 5c38 a23f f0f3 81bf 0589 c3ba
00000040: 8e8c cdb8 c36a 0ab9 ae33 0dbb 30ef 0e39
00000050: 6d38 28bb 1bfe ca3a d4c1 033b 5096 4e39
00000060: cffd 063b 4420 8339 b274 98ba d6fd 0cba
00000070: cd0b d43a 59ab 9439 c5b1 813a 3090 74ba
00000080: 5605 89b7 5090 523a 730a 4cbb 60b5 47bb
00000090: c963 3e3b d70f 243a d2e2 8abb 9148 1d3b
000000a0: f87d bfba bf97 1ebb 3ff5 5739 a482 16ba
000000b0: 532a ffb9 ed77 03bb 8957 d739 df48 193b
000000c0: dd37 3aba df51 a63a 0d94 783a 4689 6abb
000000d0: d9b7 3036 b555 ea3b 36c6 ddba 0e98 0cb8
000000e0: ed72 0fb9 8acc 8839 6324 1d3a 80b2 3f3a
000000f0: 3ecc 4eba 0a4f 833a d218 a339 0c3b 29ba
00000100: 6a66 cf3a defb 63ba a1f2 78ba 33c7 263a
00000110: 86ba 543b 2a8a 0138 74f8 073b bb2a c9ba
00000120: da21 63ba 1cc7 093b c7c5 a0ba 9578 913a
00000130: 7e9d 73ba cbf5 5b38 02cc a33a 0421 3eba
00000140: ea87 64ba 3d42 9fb6 1e1e 7b3b c7f2 d53e
00000150: e992 89be c9a3 05ba 8389 cc39 ead1 dab8
00000160: aaac e7b8 d45e 653a 6047 57ba 40b2 9eb9
00000170: 18ac 723b 3270 bb3e 21b5 91be 4e7c b33a
00000180: 41af aaba 1737 d0ba 07ed 513b 6147 faba
00000190: aa76 fe3a 64b8 85ba 0522 1cbb f06d bc3a
000001a0: 9b69 1bbb c636 b03a 4346 04bb 3d2d 8637
000001b0: da22 523b 76c0 79ba c1ea 323b f15c 0abb
000001c0: c1ab 54ba 42a4 74ba 5bb5 a73b ff99 01b9
000001d0: 2c38 13ba 5db7 9939 77db 8bbf defc 5c3f
000001e0: 1be0 a43a 1ae4 d63a 8a62 08b9 2115 6e3a
000001f0: 5423 9f3a 6a2d b3ba e01a fe3a d404 9bba
00000200: 1caa 12bb 260e dd3a 664a 0d3b 702a fbba
00000210: e243 19ba 9aed b23b 96cc 263a 48d0 89ba
00000220: 74b3 e7ba 74e8 3aba 5a47 cfba e922 01bb
00000230: 1847 89b9 c778 993a d55b 1a3a e1cb b9ba
00000240: 6aa2 1e39 d258 3a3a bc01 51ba d799 ea3a
00000250: 6b24 3d3f 6195 063e 9ec3 f73a 0881 95ba
00000260: b149 37ba 462a 5c3a 1fb5 443a ce38 863a
00000270: 4fa9 e2ba c705 0e3b 81e6 2dbf eb53 f83e
00000280: 1527 ccba bea1 173b b199 783a 44ac a6bb
00000290: dd72 d13a 88ad 2a3a 60b2 f0ba 7a92 ce3a
000002a0: 8120 33bf ff3b 9a3e fe22 0fbb f6d3 3e3b
000002b0: a58c acb7 636a 98bb d306 243b 9ff4 65ba
000002c0: c6a1 92ba 17ec f83a 4a0b 373b f948 6c3a
000002d0: be6e 0eba a8b4 0ebb cc6c ceb9 7ed6 423a
000002e0: c794 3fba 01ca 003b 5168 07ba 96f0 deba
000002f0: c7a8 51ba 5d7f 01bb 8ca4 fcba 6006 8b3a
00000300: 3d17 003b 6270 183a 4a6d 0d3b 3490 353b
00000310: 084f f4ba 8d4d 88ba 05a9 063b 6b19 b4b9
00000320: 1017 3b3a 598f 4fba 93aa e33a 4fb4 3c3f
00000330: db8a 0a3e 44d8 08b9 69d0 2c39 7720 d939
00000340: b26b d6ba 61a2 c2ba f775 033b 5136 f8ba
00000350: 39e7 06ba 0d9d 563b 8086 89ba 51a5 9ab9
00000360: 7216 ffb9 613a 223a b4da 983b 6ef1 13ba
00000370: e352 843a b72e 103a fa51 ffba c70d 2bbb
00000380: 889a 8b3a 86ff e63a ebdb 9aba 9839 9f3a
00000390: e123 25b9 c86a bf37 3d83 243b d65c 4fbb
000003a0: c4d8 48ba 0d1c 983b adb6 38bb 21dc 81ba
000003b0: f33e e33a a7cc c5ba 75c4 0f3f 5c94 c6be
000003c0: 6c5f d039 5681 ac39 2069 97b9 95a4 9439
000003d0: ffa8 51b9 ab75 9a36 80b8 bf3a 77b5 6c3a
000003e0: 81ff 853a 6600 493b 1571 3c3a eb32 53ba
000003f0: a4c9 e73a 28e3 3c3f bd50 0b3e 9609 2dbb

energy_net.0.bias f4 [128]
-0.00067995937 0.0003721087 0.3022458 0.0018660342 -0.00032577824 0.000109786524 -0.003279101 6.528481e-05
7.111372e-05 0.0001607549 -0.0010474235 -0.00021393428 -0.0011082396 0.0023858205 -0.00011068441 8.10247e-05
0.05073567 -0.00032097957 0.112961166 0.00037224227 0.0010122348 -0.00093774404 0.0015196472 -0.2697372
-0.0013304967 -0.0003433546 -0.00068869424 -0.00022920327 -0.001967474 0.18401647 -0.00044807582 -0.17358622
-0.0012199514 -0.017484512 0.0005634627 -0.001848661 0.0006866898 -0.0009583572 8.6991415e-05 -0.0004948489
0.18850344 0.0011098766 -0.002368543 -0.0017286553 0.0015460416 0.00097046775 0.0012177541 0.112730004
0.0009993702 -0.0016301051 0.18697484 0.0011749372 -0.0011290684 -0.0590998 0.001599333 0.050768107
-0.0014197781 0.10851477 0.22781953 -0.0008361055 -0.00046890028 8.644072e-05 -0.00011858891 0.00040550335
0.0016366207 -0.0006376559 -0.0013615713 -0.0015267236 0.21161558 0.26486933 -0.0018561487 -0.061513633
0.00019869593 0.0019681465 -0.0011655426 0.0022411332 0.0017232412 -0.13214517 -0.20183502 0.00066677347
-0.000511754 0.15924852 -9.373495e-05 0.0017021596 0.15646072 0.19063841 -0.0012046788 -0.0013080741
-0.00036927985 0.0005336892 -0.03210509 -0.0013459707 0.001512729 0.0008680136 -0.00035829068 0.0013541555
0.00061471295 -0.00012137964 0.00078472 -0.028304094 0.00055690005 0.0006750377 -0.0013660815 0.29247633
0.00016974243 0.0015742497 -0.00018745163 0.17083082 0.20174578 0.021985168 -2.0817484e-05 0.06339861
-0.00023418899 -0.19200672 -0.001330521 0.18719518 0.0007297069 -0.0005669268 -0.00038829402 0.0016489374
0.00204796 -0.0012314542 0.0005146506 -0.1858967 -0.0009826825 -0.0012048114 -0.1909983 0.3265189
00000000: 4d3f 32ba 9617 c339 f6bf 9a3e b895 f43a
00000010: 37cd aab9 313d e638 30e6 56bb 84e9 8838
00000020: e322 9538 5190 2839 b349 89ba 8c53 60b9
00000030: 5a42 91ba 6d5b 1c3b 3d1f e8b8 ceeb a938
00000040: 35d0 4f3d 2649 a8b9 2f58 e73d 8329 c339
00000050: f7ac 843a f0d2 75ba e62e c73a ff1a 8abe
00000060: 1064 aeba 4604 b4b9 7d89 34ba 4956 70b9
00000070: bcf0 00bb d06e 3c3e b8eb eab9 96c0 31be
00000080: c7e6 9fba ae3b 8fbc 57b5 133a c54e f2ba
00000090: f902 343a 433a 7bba 296f b638 bfb8 01ba
000000a0: 0c07 413e 4779 913a 8f39 1bbb 0c94 e2ba
000000b0: 8ca4 ca3a fd66 7e3a 0c9d 9f3a fdde e63d
000000c0: 4dfd 823a 40a9 d5ba 5576 3f3e 5a00 9a3a
000000d0: 40fd 93ba a212 72bd b6a0 d13a 38f2 4f3d
000000e0: d917 baba fe3c de3d 8649 693e 172e 5bba
000000f0: bbd6 f5b9 8247 b538 f0b2 f8b8 bd99 d439
00000100: e183 d63a 5d28 27ba c076 b2ba 581c c8ba
00000110: c1b1 583e f49c 873e 044a f3ba b8f5 7bbd
00000120: 0859 5039 05fc 003b 1fc5 98ba fadf 123b
00000130: 61de e13a 1051 07be d7ad 4ebe 69ca 2e3a
00000140: 3b27 06ba 0b12 233e 9193 c4b8 001b df3a
00000150: 3d37 203e b736 433e 50e6 9dba af73 abba
00000160: e79b c1b9 47e7 0b3a a080 03bd 486b b0ba
00000170: c346 c63a 688b 633a f6d8 bbb9 eb7d b13a
00000180: b024 213a 338d feb8 abb5 4d3a fddd e7bc
00000190: eefc 113a 03f5 303a 170e b3ba 75bf 953e
000001a0: e3fc 3139 0e57 ce3a aa8e 44b9 46ee 2e3e
000001b0: 7296 4e3e 3d1a b43c 35a1 aeb7 21d7 813d
000001c0: a190 75b9 699d 44be e064 aeba 18b0 3f3e
000001d0: cd49 3f3a d09d 14ba f193 cbb9 2821 d83a
000001e0: 1137 063b bf68 a1ba 9ee9 063a b45b 3ebe
000001f0: 5acd 80ba c3ea 9dba 0f95 43be 7c2d a73e

energy_net.2.weight f4 [128, 128]
-0.00042012776 -0.0005561608 -0.1335914 0.000462641 6.6218396e-05 -0.0012678732 0.0005881317 0.0005507852
-0.0038743152 -0.00017804322 -0.000103076774 -0.0012209422 0.0020777453 -0.00019908049 0.00090829615 -0.0004400712
-0.019758847 -0.00048417717 -0.015077782 -0.0007732575 -0.0005452006 -0.00045400712 -0.00039511098 0.07362723
0.002965052 0.0010475856 -0.0009936128 0.00069526775 0.0010122958 0.12511608 0.0013934426 0.012887245
-0.00013714029 -0.010314655 0.00045061356 -0.0022563115 -0.002805422 0.0012755947 -0.00082323974 0.00012481985
0.12584771 -9.6313684e-05 -0.00022393401 0.00052370044 0.00028870162 0.00029024208 -0.00016056387 -0.026252836
-0.00032542387 0.0036361066 0.12592503 9.769813e-05 5.3191878e-05 -0.0069028744 -0.00069842965 0.0008662761
-0.00072611455 -0.025124224 -0.021895777 0.000494945 -0.00037259713 -0.0003910784 -4.637673e-05 -0.0006349695
0.00066559494 0.0010936192 0.0009487407 0.0001131419 -0.0833318 -0.09115884 -0.001546731 0.009959845
-0.0006515621 0.001429895 -0.00037328494 0.00093928026 -0.002032111 0.010395568 0.012059054 0.0006050252
-0.0010938455 -0.015116767 0.0004839343 0.00052438304 -0.026986247 0.12585233 0.0015592864 0.0028912546
-0.00056411186 -0.0013497358 0.0004765611 -0.0005050982 -0.0006395439 0.00033440965 0.0009728708 0.0017384957
0.0011798281 -0.0010465507 -0.0021837428 -0.0034724209 0.0003772262 -0.00030670018 -2.6995418e-05 -0.07027932
8.80932e-05 0.00054072065 -0.0016084897 -0.01693284 -0.033288777 0.011448964 -0.00087363896 -0.0150012085
-0.00080835505 0.014391403 0.0002400559 0.12586702 -0.00043843812 -0.0006172814 0.0014892322 -0.0005031538
0.00014845263 0.0005422481 0.0006919069 -0.1259383 -0.0015026741 -8.2204984e-05 -0.12581791 -0.1692037
-0.0060332147 -0.008032819 0.27452365 0.0065472783 0.006495289 0.0026711642 0.004337882 0.0057349624
0.008249007 0.0018162655 -0.0025614093 0.00915404 0.0011245316 0.0018287083 0.0043590195 -0.005372899
0.060540304 0.0049678637 0.05568148 0.008744004 -0.00045336722 -0.0008046921 0.001751129 -0.23760079
-0.00438864 0.0028991976 -0.0030048694 0.003140846 -0.0017008993 0.11570693 -0.0016462342 -0.13688378
0.013090499 -0.11858097 0.009924161 -0.009792569 0.011820088 -0.0053749923 0.008814069 -0.004971182
0.11584723 0.0032167796 0.0037906969 -0.004411792 0.007803432 0.00010422496 -0.006821617 0.103297286
0.0020981175 -0.0034830777 0.11582533 0.005347509 -0.0042665675 -0.14678691 -0.005236242 -0.01053035
-0.0012107912 0.20627883 0.18667485 -0.007933554 -0.007001899 0.003830105 -0.0016501158 0.009134963
0.005562664 0.0068958467 0.008737151 -0.007199984 0.24732926 0.25016603 0.0006585033 -0.042120825
-0.005933098 -0.002716904 -0.0027570256 0.0033250842 -0.002637104 -0.046958923 -0.15184513 0.0029078391
-0.008565205 0.18698728 -0.01447737 -0.011351122 0.07886494 0.11588194 -0.0015721534 -0.0043567433
0.009429226 -0.0009464811 -0.10509409 -0.007390232 0.0047304663 0.0019093273 0.0041291276 0.006379299
0.0065190042 0.007939508 0.008552984 -0.11437635 0.014137532 -0.0049556 0.007730671 -0.57276726
0.0055239 0.00088834745 0.013180258 0.12890029 0.09773202 0.1545666 -0.0061973766 0.10854535
-0.0029797372 -0.13946545 0.009559701 0.11582904 0.00068785413 -0.00013127086 -0.006487231 0.0064266017
-0.0046238177 0.008719465 0.008238456 -0.11580201 0.007860436 -0.0077719945 -0.1158894 -0.30279544
00000000: 9844 dcb9 52cb 11ba 2fcc 08be a08e f239
00000010: bbde 8a38 c42e a6ba da2c 1a3a 9262 103a
00000020: 39e8 7dbb 1db1 3ab9 ec2a d8b8 0608 a0ba
00000030: c82a 083b 43c0 50b9 b91a 6e3a 5bb9 e6b9
00000040: 4edd a1bc 29d9 fdb9 cd08 77bc 6fb4 4aba
00000050: cbeb 0eba ce07 eeb9 e626 cfb9 e0c9 963d
00000060: 5151 423b 244f 893a 1d3c 82ba a142 363a
00000070: 03af 843a 6e1e 003e 2da4 b63a 0625 533c
00000080: 51cd 0fb9 ccfe 28bc 5440 ec39 a0de 13bb
00000090: 2cdb 37bb db31 a73a afce 57ba 13e2 0239
000000a0: 39de 003e 04fc c9b8 d4cf 6ab9 f148 093a
000000b0: e05c 9739 a22b 9839 095d 28b9 3010 d7bc
000000c0: a79d aab9 bf4b 6e3b 7ef2 003e 49e3 cc38
000000d0: 581a 5f38 8231 e2bb d216 37ba ce16 633a
000000e0: b958 3eba 51d1 cdbc c65e b3bc 32bf 013a
000000f0: 2459 c3b9 a809 cdb9 a284 42b8 1574 26ba
00000100: 527b 2e3a c557 8f3a e9b4 783a 9846 ed38
00000110: dda9 aabd 7cb1 babd aebb caba 9e2e 233c
00000120: 98cd 2aba 516b bb3a 75b5 c3b9 083a 763a
00000130: 2a2d 05bb 2c52 2a3c 5793 453c 8e9a 1e3a
00000140: 5d5f 8fba 51ac 77bc 90b8 fd39 c076 093a
00000150: 4312 ddbc 6fdf 003e f860 cc3a 347b 3d3b
00000160: e8e0 13ba 9ee9 b0ba f3da f939 9168 04ba
00000170: 11a7 27ba b453 af39 4108 7f3a 3cde e33a
00000180: 76a4 9a3a 6a2c 89ba 201d 0fbb 8e91 63bb
00000190: 72c6 c539 9acc a0b9 3874 e2b7 9bee 8fbd
000001a0: adbe b838 26bf 0d3a f5d3 d2ba bdb6 8abc
000001b0: d059 08bd 6f94 3b3c eb04 65ba a1c7 75bc
000001c0: cae7 53ba ebc9 6b3c 84b7 7b39 49e3 003e
000001d0: 2bde e5b9 0ed1 21ba 5732 c33a 14e6 03ba
000001e0: f3a9 1b39 a725 0e3a 1661 353a f8f5 00be
000001f0: 60f5 c4ba 7765 acb8 69d6 00be bc43 2dbe
00000200: 46b2 c5bb 169c 03bc 5d8e 8c3e 8d8a d63b
00000210: 6fd6 d43b b30e 2f3b cb24 8e3b 5aec bb3b
00000220: d826 073c c20f ee3a 51dd 27bb d4fa 153c
00000230: 0565 933a 45b1 ef3a 1bd6 8e3b 250f b0bb
00000240: 1cf9 773d 76c9 a23b 4312 643d 0343 0f3c
00000250: ebb1 edb9 f9f1 52ba 2486 e53a 9f4d 73be
00000260: 95ce 8fbb 7700 3e3b 58ed 44bb a7d6 4d3b
00000270: b6f0 deba c1f7 ec3d 74c6 d7ba 432b 0cbe
00000280: 8879 563c 94da f2bd f398 223c 0371 20bc
00000290: 0ba9 413c b420 b0bb e368 103c 4ce5 a2bb
000002a0: 5041 ed3d 9bd0 523b 576d 783b cb90 90bb
000002b0: efb3 ff3b 5993 da38 df87 dfbb 878d d33d
000002c0: 9280 093b 5944 64bb d535 ed3d 283a af3b
000002d0: 90ce 8bbb 4f4f 16be c894 abbb 7d87 2cbc
000002e0: 69b3 9eba c23a 533e b127 3f3e bdfb 01bc
000002f0: 3070 e5bb 8002 7b3b b348 d8ba d0aa 153c
00000300: 0247 b63b 8ef6 e13b 4426 0f3c d8ed ebbb
00000310: e243 7d3e c315 803e 699f 2c3a e386 2cbd
00000320: 6f6a c2bb 160e 32bb 37af 34bb a8e9 593b
00000330: 43d3 2cbb 0058 40bd 4a7d 1bbe 7291 3e3b
00000340: 1355 0cbc 9879 3f3e 7e32 6dbc 0efa 39bc
00000350: f183 a13d 8353 ed3d b710 ceba 03c3 8ebb
00000360: 0a7d 1a3c 451d 78ba 923b d7bd c229 f2bb
00000370: 0702 9b3b 6542 fa3a a24d 873b 7009 d13b
00000380: 5f9d d53b b614 023c d121 0c3c 263e eabd
00000390: 1ba1 673c 9662 a2bb 9251 fd3b e0a0 12bf
000003a0: d501 b53b fddf 683a 02f2 573c 70fe 033e
000003b0: ba27 c83d b546 1e3e 5d13 cbbb 064d de3d
000003c0: b247 43bb 08d0 0ebe 4ba0 1c3c c737 ed3d
000003d0: 1c51 343a c1a5 09b9 d692 d4bb 3e96 d23b
000003e0: 6583 97bb 16dc 0e3c 97fa 063c 9b29 edbd
000003f0: 0fc9 003c 37ac febb 6c57 edbd 0108 9bbe

energy_net.2.bias f4 [128]
0.17725492 0.13700469 -0.01876921 -0.1864407 -0.18937656 -0.02208455 -0.17569721 0.13606322
0.012085212 0.023254085 0.14006364 0.01619559 -0.1324993 -0.13603796 0.012734767 0.027068822
0.18386029 -0.17618868 -0.18260574 0.021490319 0.18364875 -0.019078035 -0.17199346 0.01498284
0.1352826 -0.0155786015 -0.18686216 -0.022906506 0.13860159 -0.014942036 -0.18047765 0.021928048
-0.1360162 0.016462209 0.17352802 0.17645365 0.18707389 -0.1368429 -0.13524552 0.14305048
0.13604702 -0.18265596 0.016824825 0.015048809 0.14080566 -0.1345248 -0.015116192 0.1334364
-0.1370839 0.022141453 0.020048419 0.016530145 0.01424919 0.14019045 0.14116748 -0.18568248
0.018421452 0.13768223 0.02820899 -0.013585985 0.03628503 -0.017380463 -0.18310757 0.015418011
0.016241295 -0.17656507 0.18134554 0.022654055 0.021303328 0.18198495 -0.022547685 0.13674262
-0.017030286 -0.017021324 0.016803728 -0.016162634 -0.020006154 -0.1367307 -0.1370938 0.015536777
-0.1345493 -0.016844302 0.1360791 -0.13591707 0.012416949 0.020067783 -0.13527529 0.016507143
0.015245619 0.018241534 0.017883215 0.13505708 0.13970289 -0.17574781 -0.017550511 0.18107267
0.015765764 -0.018025182 0.17271595 -0.0065704132 0.13908616 -0.18470441 -0.13364455 -0.024466462
-0.017199641 0.016347418 -0.18077813 0.017316537 0.13911118 -0.13698713 -0.017651185 -0.13832241
0.18413503 0.018842388 -0.015779838 -0.13716751 -0.13495159 -0.014474983 0.18083239 0.013225483
-0.13604476 -0.01913065 -0.1770815 0.03106114 -0.13758132 -0.019575497 0.18112305 -0.020775812
00000000: 5082 353e f54a 0c3e e3c1 99bc 50ea 3ebe
00000010: eeeb 41be a8ea b4bc f8e9 33be 2854 0b3e
00000020: 0e01 463c 5a7f be3c d86c 0f3e 9dac 843c
00000030: e6ad 07be 894d 0bbe 7ca5 503c 6fbf dd3c
00000040: df45 3c3e ce6a 34be 00fd 3abe 770c b03c
00000050: 6b0e 3c3e 8a49 9cbc 0e1f 30be 967a 753c
00000060: 8687 0a3e 643d 7fbc cb58 3fbe 6da6 bbbc
00000070: 93ed 0d3e 71cf 74bc 22cf 38be 73a2 b33c
00000080: d547 0bbe c1db 863c 54b1 313e 44b0 343e
00000090: 4c90 3f3e 8c20 0cbe cd7d 0abe d37b 123e
000000a0: e94f 0b3e 2a0a 3bbe 37d4 893c 488f 763c
000000b0: 5c2f 103e dfc0 09be e8a9 77bc 8da3 083e
000000c0: b95f 0cbe fe61 b53c 953c a43c 3a6a 873c
000000d0: 6f75 693c 168e 0f3e 358e 103e 8c23 3ebe
000000e0: 96e8 963c 92fc 0c3e 8a16 e73c c097 5ebc
000000f0: 9d9f 143d 7961 8ebc 8d80 3bbe d39b 7c3c
00000100: 770c 853c 79cd 34be a5b2 393e ff94 b93c
00000110: 5184 ae3c 435a 3a3e ecb5 b8bc 4206 0c3e
00000120: 1983 8bbc 4e70 8bbc f9a7 893c 8067 84bc
00000130: f2e3 a3bc 2203 0cbe 5162 0cbe f78d 7e3c
00000140: 4bc7 09be 10fd 89bc 5258 0b3e d82d 0bbe
00000150: 7570 4b3c 3165 a43c 9b85 0abe fd39 873c
00000160: c3c8 793c 456f 953c d27f 923c 674c 0a3e
00000170: 460e 0f3e 3cf7 33be 17c6 8fbc 1d6b 393e
00000180: 3427 813c 8ca9 93bc 73dc 303e 9f4c d7bb
00000190: 9a6c 0e3e 2723 3dbe 1eda 08be e46d c8bc
000001a0: 43e6 8cbc 05eb 853c e71d 39be 69db 8d3c
000001b0: 2973 0e3e 5b46 0cbe 3899 90bc 64a4 0dbe
000001c0: e58d 3c3e 5a5b 9a3c b844 81bc a475 0cbe
000001d0: c030 0abe 7b28 6dbc 202c 393e b2af 583c
000001e0: 514f 0bbe e2b7 9cbc da54 35be ef73 fe3c
000001f0: 1ee2 0cbe cb5c a0bc 5278 393e 0932 aabc

energy_net.5.weight f4 [128, 128]
-0.02111237 0.0451675 0.0033200763 0.027399212 0.011669411 -0.0044401595 0.03195585 0.0014509279
0.0016462628 0.0013175331 0.033541135 0.00088984426 -0.044630017 -0.037143137 0.0020102654 -0.0027186815
-0.029856084 0.051866185 0.043004297 -3.13162e-05 -0.041057914 0.0006168582 0.037874643 -4.6601974e-05
0.004278979 0.00500916 0.020346772 0.001993676 0.02861497 -0.00073514355 0.035623632 -0.0019403526
-0.012093891 0.0020711552 -0.010730997 -0.007857472 -0.017254803 0.005533054 -0.04144898 0.035375003
0.025296625 0.025920112 -0.0016158586 -0.00052719313 0.010947674 -0.009011319 0.0077946708 0.022698553
-0.011509869 -0.00070992205 -0.0026569925 0.0017563916 -0.00077031885 0.04450747 0.041988842 0.041439995
0.0031761006 0.0043889303 -2.9353365e-05 0.0031089264 0.00202572 0.0016711495 0.03622841 0.0003584748
-0.00027994768 0.031636022 -0.015089742 -0.0016599332 -0.004732387 -0.013329856 -0.0014326854 0.018251326
0.0007764759 -0.0024786761 -0.0023251052 0.0045395214 0.0002239516 -0.014435567 -0.008438151 0.002423582
-0.015766934 0.0023285458 0.041123644 -0.02599686 0.0031297924 0.0032979848 -0.0672908 -0.0029474937
-0.0022570987 -0.0061088894 -8.036485e-05 0.02741087 0.04360169 0.009722893 0.0006886918 -0.020255946
-0.00012921187 0.0031085664 -0.032369506 0.0019450005 0.032002185 0.03077135 -0.017421594 0.00013432445
0.002900058 -0.0030760623 0.039258182 0.0016211376 0.026047071 -0.02561544 0.002246247 -0.012011192
-0.029045846 -0.0038533956 -0.00446188 0.0007174348 -0.004583813 0.0002455186 -0.023202814 0.0046321107
-0.057794105 0.001147885 0.028315892 -0.002317035 -0.006601726 0.0003153023 -0.04325994 0.0014807052
-0.014300278 0.036873627 0.002606499 0.025553057 0.04615802 0.0025722585 0.014746733 0.03714396
-0.0033302114 -0.0064057535 0.055021346 0.0016518174 -0.007289627 -0.020725325 -0.0034012413 -0.0002441878
-0.02456993 0.033202846 -0.0077406145 -0.0008431952 -0.023372293 -0.0051222304 0.020080047 -0.002970741
0.029814944 -0.0011578519 0.01180963 0.0029862477 0.019477071 0.0057303538 0.026080286 -0.0029194027
-0.033809736 -0.0042171413 -0.010363252 -0.00089580665 -0.021266745 -0.029010758 -0.037742402 0.0084523335
0.012837477 0.02809441 0.0037810544 -0.0033566256 0.026828561 -0.0083332285 0.0003764084 0.023835553
-0.027159149 -0.009759745 -0.0025392477 -0.0025915224 -0.006451444 0.03445715 0.024463804 0.0123873865
0.0004057829 -0.00042411065 -0.005322368 0.0035346237 -0.0028225656 0.0015680097 0.011578148 -0.005831346
-0.003308326 0.005852878 -0.017306184 -0.0092369355 0.0010300683 -0.02495537 0.0041672345 0.014671117
0.0066356193 0.004579613 -0.0040450287 0.0018874968 -1.2113252e-05 -0.0034276578 -0.073255636 -0.0008387091
-0.024354253 1.909396e-05 0.011161091 -0.012418592 -0.0032058265 0.0002796747 -0.031168275 -0.0035620783
-0.0008225603 -0.0036736461 0.0027600115 0.027838735 0.03602084 0.006813233 0.0015435196 -0.021217857
-0.0024709897 0.006516726 -0.005549881 0.0017589779 0.017831178 0.019431204 -0.007831411 0.006403606
0.0035750584 0.0010209815 0.018257875 -0.0039918646 0.011867991 -0.015132469 0.0046011857 -0.023852421
-0.018480683 -0.0020727539 -0.0022678715 -0.009336657 -0.004060316 0.0047741462 -0.018696772 -0.004275875
0.01686208 0.0041453727 0.038601197 0.0010162456 -0.03239291 0.004691165 -0.02373423 -0.0007473473
00000000: d9f3 acbc 8e01 393d a395 593b 5074 e03c
00000010: 0f31 3f3c c27e 91bb 23e4 023d 102d be3a
00000020: 6ac7 d73a 13b1 ac3a 6e62 093d 7044 693a
00000030: f7cd 36bd 6723 18bd a8be 033b e82b 32bb
00000040: bf94 f4bc a371 543d 4625 303d 8459 03b8
00000050: 582c 28bd a7b4 213a 7122 1b3d 7d76 43b8
00000060: ad36 8c3b e123 a43b 46ae a63c 55a8 023b
00000070: f169 ea3c a6b6 40ba 16ea 113d 6e53 feba
00000080: 7525 46bc 38bc 073b 10d1 2fbc a0bc 00bc
00000090: f259 8dbc 9f4e b53b 68c6 29bd 61e5 103d
000000a0: de3a cf3c 6a56 d43c 38cb d3ba 5533 0aba
000000b0: df5d 333c 36a4 13bc 706a ff3b 51f2 b93c
000000c0: e493 3cbc 101a 3aba f020 2ebb b936 e63a
000000d0: 39ef 49ba 774d 363d 7efc 2b3d fcbc 293d
000000e0: 2026 503b 04d1 8f3b df3b f6b7 21bf 4b3b
000000f0: f1c1 043b 790a db3a 3e64 143d acf1 bb39
00000100: f1c5 92b9 c694 013d f73a 77bc 1e92 d9ba
00000110: 2412 9bbb 7865 5abc f2c8 bbba ce83 953c
00000120: 6a8c 4b3a 4971 22bb cb60 18bb 44c0 943b
00000130: 8dd4 6a39 2883 6cbc 2c40 0abc f5d4 1e3b
00000140: a829 81bc 849a 183b 4471 283d 5ef7 d4bc
00000150: 341d 4d3b 0123 583b c2cf 89bd bd2a 41bb
00000160: d5eb 13bb 142d c8bb 8d89 a8b8 c38c e03c
00000170: b097 323d c54c 1f3c 5389 343a ccef a5bc
00000180: 0c7d 07b9 17b9 4b3b e395 04bd 63ef fe3a
00000190: b914 033d 3314 fc3c bbb7 8ebc 72d9 0c39
000001a0: e60e 3e3b c397 49bb 30cd 203d 5a7c d43a
000001b0: ab60 d53c 79d7 d1bc c535 133b 97ca 44bc
000001c0: 8ef1 edbc 4089 7cbb f634 92bb 3c12 3c3a
000001d0: cf33 96bb f3b8 8039 d413 bebc f6c8 973b
000001e0: 83b9 6cbd a174 963a bbf6 e73c 66d9 17bb
000001f0: 4b53 d8bb 294f a539 5631 31bd 3914 c23a
00000200: b74b 6abc cd08 173d ccd1 2a3b a554 d13c
00000210: 3110 3d3d 5693 283b 489c 713c 4424 183d
00000220: ad3f 5abb 5be7 d1bb 105e 613d cb81 d83a
00000230: d3dd eebb 28c8 a9bc 5ce7 5ebb 5506 80b9
00000240: e146 c9bc b5ff 073d fba4 fdbb df09 5dba
00000250: 4077 bfbc 62d8 a7bb e97e a43c c3b0 42bb
00000260: 783e f43c 10c3 97ba 2e7d 413c ecb4 433b
00000270: 618e 9f3c b1c5 bb3b 53a6 d53c 7353 3fbb
00000280: 147c 0abd f22f 8abb a1ca 29bc 91d4 6aba
00000290: 9937 aebc f8a7 edbc c797 1abd a87b 0a3c
000002a0: 4854 523c 4026 e63c 91cb 773b d5fa 5bbb
000002b0: 92c7 db3c 1888 08bc ae58 c539 c742 c33c
000002c0: dd7c debc 56e7 1fbc 8269 26bb 88d6 29bb
000002d0: a266 d3bb f122 0d3d 5168 c83c 77f4 4a3c
000002e0: 42bf d439 2b5b deb9 4267 aebb 25a5 673b
000002f0: cbfa 38bb ad85 cd3a 46b2 3d3c e014 bfbb
00000300: 80d0 58bb 80c9 bf3b b3c5 8dbc 8456 17bc
00000310: 5b03 873a 346f ccbc 4c8d 883b 205f 703c
00000320: 9c6f d93b 9410 963b 298c 84bb e265 f73a
00000330: 053a 4bb7 8ea2 60bb 0d07 96bd d1dc 5bba
00000340: 9282 c7bc f82b a037 02dd 363c 5a77 4bbc
00000350: d818 52bb 4ea1 9239 9c54 ffbc c271 69bb
00000360: 16a1 57ba 8ec1 70bb 4fe1 343b 0f0e e43c
00000370: 978a 133d 8a41 df3b ec4f ca3a 12d1 adbc
00000380: 54f0 21bb 438a d53b c7db b5bb 818d e63a
00000390: b112 923c 302e 9f3c 524f 00bc 57d5 d13b
000003a0: 874b 6a3b 74d2 853a 8a91 953c 30ce 82bb
000003b0: f671 423c 2dee 77bc 8bc5 963b 2766 c3bc
000003c0: cd64 97bc 0ad7 07bb 92a0 14bb c7f8 18bc
000003d0: 660c 85bb 7170 9c3b f929 99bc a41c 8cbb
000003e0: 5822 8a3c e8d5 873b 4a1c 1e3d 8b33 853a
000003f0: 6eae 04bd 58b8 993b 4a6e c2bc a1e9 43ba

energy_net.5.bias f4 [128]
-0.07329145 -0.05995387 0.12059132 0.06909356 0.057711653 -0.40521812 -0.08307244 0.07576164
0.07814187 -0.07781752 0.32232776 0.3437939 0.07093868 0.060751885 -0.056605253 0.05766937
-0.38354528 0.28671566 -0.13295844 -0.05494012 -0.076162264 0.060010858 0.34776333 0.049288347
-0.074796714 0.06918363 0.06215463 -0.06148863 0.06303857 -0.1000832 0.06540323 0.133188
-0.056531172 -0.07949559 -0.05498978 0.074735165 0.38022593 -0.2938607 -0.07551666 -0.34388644
-0.08335107 0.32712623 0.13459226 -0.0709957 0.06381348 0.39028957 -0.062392283 -0.05649926
0.04551788 -0.13465887 -0.08177434 0.06856838 -0.056417383 -0.073588654 0.06562906 -0.039704736
0.083242856 0.069091804 0.08004429 -0.05952191 -0.074810125 0.053060923 -0.36888155 -0.065604374
-0.044340428 0.066710435 0.07255138 -0.0739121 0.06556308 0.071776085 0.086733796 0.0641617
0.33806258 -0.030830929 -0.08125748 0.06854438 0.057395525 0.06453433 -0.105613194 -0.059744958
0.1296828 0.41764227 -0.07820058 -0.06992363 0.06975045 0.39491 -0.064618275 0.03088512
0.07651219 -0.07288743 0.059639446 0.07222993 -0.0753085 -0.06614661 -0.06533584 -0.07981822
0.17822027 0.12876922 0.066145025 0.054189123 0.06534651 -0.06872235 -0.42561123 -0.06730843
-0.05166108 -0.06330866 -0.3013862 0.11270534 -0.030166985 0.32811302 -0.05736056 0.054416344
-0.06664033 0.083489105 -0.09382791 -0.07613084 0.06181516 0.10311641 0.07600354 0.107436605
0.08131435 -0.07062664 0.069391996 0.03109662 0.09360355 0.13307533 -0.36399117 -0.060184613
00000000: d419 96bd 3092 75bd 95f8 f63d ed80 8d3d
00000010: 0e63 6c3d c078 cfbe e221 aabd eb28 9b3d
00000020: d808 a03d cb5e 9fbd 2508 a53e c105 b03e
00000030: 4c48 913d f8d6 783d e9da 67bd b836 6c3d
00000040: 0c60 c4be 65cc 923e 4226 08be e408 61bd
00000050: f6fa 9bbd f2cd 753d 090e b23e 94e2 493d
00000060: 052f 99bd 26b0 8d3d da95 7e3d 80db 7bbd
00000070: 5e1a 813d 6cf8 ccbd 21f2 853d 6f62 083e
00000080: 3b8d 67bd 95ce a2bd f73c 61bd c00e 993d
00000090: f9ac c23e e974 96be 7ba8 9abd e211 b0be
000000a0: f7b3 aabd 177d a73e 8ed2 093e 3266 91bd
000000b0: a4b0 823d 09d4 c73e 0d8f 7fbd c56b 67bd
000000c0: f570 3a3d 04e4 09be 4e79 a7bd 946d 8c3d
000000d0: ea15 67bd a6b5 96bd 8768 863d 6fa1 22bd
000000e0: 3b7b aa3d 0180 8d3d 43ee a33d 3fcd 73bd
000000f0: 0d36 99bd 6956 593d 0bde bcbe 965b 86bd
00000100: 4f9e 35bd 7b9f 883d d195 943d 3a5f 97bd
00000110: f045 863d 57ff 923d 7da1 b13d 3667 833d
00000120: 8a16 ad3e 2591 fcbc 526a a6bd ff60 8c3d
00000130: 9217 6b3d 932a 843d bb4b d8bd 21b7 74bd
00000140: 91cb 043e 35d5 d53e a027 a0bd 1f34 8fbd
00000150: 53d9 8e3d a531 ca3e 9656 84bd cb02 fd3c
00000160: 6cb2 9c3d 0146 95bd 7e48 743d 49ed 933d
00000170: 583b 9abd e077 87bd ccce 85bd bc77 a3bd
00000180: 607f 363e 14dc 033e 0b77 873d 6af5 5d3d
00000190: 64d4 853d 4ebe 8cbd b7e9 d9be 01d9 89bd
000001a0: 929a 53bd f9a7 81bd 4b4f 9abe 0fd2 e63d
000001b0: c120 f7bc 6efe a73e e8f2 6abd ace3 5e3d
000001c0: ba7a 88bd 56fc aa3d d928 c0bd 7cea 9bbd
000001d0: e531 7d3d b22e d33d bea7 9b3d b907 dc3d
000001e0: 2388 a63d b3a4 90bd 641d 8e3d 57be fe3c
000001f0: 38b3 bf3d e644 083e 0d5d babe 2484 76bd

energy_net.8.weight f4 [1, 128]
-0.4515668 -0.4508924 0.36895683 0.4770281 0.4623277 -0.89996916 -0.4765929 0.40988743
0.52321035 -0.4887556 0.8688629 0.85343045 0.49517003 0.4839987 -0.41193947 0.483555
-0.8740729 0.7923496 -0.5059714 -0.4320464 -0.4971895 0.4647975 0.8525767 0.45178452
-0.4904411 0.49533507 0.48164874 -0.46903926 0.47623178 -0.60122645 0.4780708 0.48840725
-0.43277788 -0.49496925 -0.4700297 0.49650845 0.945385 -0.7950952 -0.49337724 -0.8591867
-0.47784963 0.82619226 0.511704 -0.4470625 0.4822807 0.9000525 -0.41946122 -0.41389185
0.36723533 -0.5043156 -0.5149653 0.47932154 -0.46494156 -0.48781624 0.4841446 -0.3436634
0.48926264 0.495731 0.51512104 -0.45094672 -0.46832073 0.3718269 -0.90548766 -0.47681987
-0.34177437 0.48849356 0.35684985 -0.4877958 0.45857278 0.48554838 0.5464695 0.46813357
0.8477375 -0.4007665 -0.4971479 0.48245803 0.4750562 0.44785383 -0.351892 -0.44789574
0.50639904 0.94767225 -0.5161252 -0.48135817 0.49331015 0.9362352 -0.48810312 0.41908833
0.47981402 -0.5067327 0.34699723 0.48859563 -0.49051952 -0.48432118 -0.479313 -0.48009393
0.69152135 0.49547726 0.4917907 0.4288499 0.49031013 -0.4803155 -0.9761938 -0.479419
-0.43297195 -0.48239014 -0.8396804 0.5379405 -0.3749592 0.90013176 -0.4857047 0.35764933
-0.48018238 0.52281857 -0.34359586 -0.53220963 0.4413809 0.35334456 0.50153685 0.35268027
0.33740065 -0.5105078 0.46726972 0.3817421 0.3427123 0.4962361 -0.941538 -0.3364554
00000000: c333 e7be 5edb e6be e9e7 bc3e 073d f43e
00000010: 37b6 ec3e 6164 66bf fc03 f4be c4dc d13e
00000020: 1df1 053f 2d3e fabe cd6d 5e3f 6b7a 5a3f
00000030: ed86 fd3e adce f73e bbe9 d2be 8594 f73e
00000040: 3ec3 5fbf 6cd7 4a3f 5787 01bf 3035 ddbe
00000050: 9f8f febe f0f9 ed3e 7742 5a3f 4d50 e73e
00000060: 191b fbbe 8f9c fd3e aa9a f63e ea25 f0be
00000070: a7d4 f33e fae9 19bf b2c5 f43e 8410 fa3e
00000080: 1095 ddbe 9c6c fdbe bca7 f0be 5b36 fe3e
00000090: c004 723f 5c8b 4bbf f19b fcbe a9f3 5bbf
000000a0: b5a8 f4be 5681 533f 09ff 023f 60e5 e4be
000000b0: 7fed f63e d769 663f 9fc3 d6be a2e9 d3be
000000c0: 4506 bc3e d41a 01bf c4d4 03bf a269 f53e
000000d0: d20c eebe 0dc3 f9be cde1 f73e a6f4 afbe
000000e0: a280 fa3e 74d0 fd3e f9de 033f 7de2 e6be
000000f0: bcc7 efbe 1860 be3e 0ace 67bf bc21 f4be
00000100: 0dfd aebe d41b fa3e 06b5 b63e 5fc0 f9be
00000110: 0dca ea3e cc99 f83e 6de5 0b3f 34af ef3e
00000120: 5305 593f 4431 cdbe 2b8a febe bd04 f73e
00000130: 913a f33e 194d e53e 302b b4be 9752 e5be
00000140: 5ea3 013f a69a 723f c820 04bf 9474 f6be
00000150: 2693 fc3e 1cad 6f3f a7e8 f9be bf92 d63e
00000160: 2faa f53e 3cb9 01bf 9fa9 b13e 3529 fa3e
00000170: 6025 fbbe f2f8 f7be 8368 f5be dfce f5be
00000180: 8b07 313f 32af fd3e fecb fb3e 3792 db3e
00000190: ee09 fb3e eaeb f5be d6e7 79bf 6876 f5be
000001a0: 80ae ddbe d7fb f6be 4bf5 56bf 78b6 093f
000001b0: a7fa bfbe 096f 663f 49ae f8be d01d b73e
000001c0: 77da f5be 70d7 053f cceb afbe e43e 08bf
000001d0: adfc e13e 94e9 b43e b864 003f 8292 b43e
000001e0: c7bf ac3e a4b0 02bf fa3d ef3e b373 c33e
000001f0: fd77 af3e a812 fe3e a208 71bf e243 acbe

exp_avg f4 [128, 5]
0.00095987547 0.00043096775 -0.0011311888 2.1092683e-05 -3.3400258e-05 0.0016164619 0.00073470525 -0.0015815848
0.00011824833 0.00013499291 0.10256805 -0.06709256 0.058730885 0.02216699 0.044751126 -0.0022882377
-0.0011827294 0.0021252614 0.00015008141 -3.849177e-05 -0.0029415183 -0.00082689174 0.0025127672 -4.7715665e-05
-1.7563383e-05 -0.00014764353 -9.193529e-05 -5.0192437e-05 -5.2109008e-05 -0.00018223558 0.0018538565 0.000595555
-0.0015643516 -0.00016386036 -0.00041097676 -0.0027710018 -0.00096014264 0.0027871504 8.642323e-05 0.00018424232
0.0011577593 -1.0207253e-05 -0.0007380786 7.9595775e-05 7.665922e-05 0.00068965694 0.00049862394 -0.00038881102
-0.00011565133 5.2421714e-05 0.0025164692 0.0009245722 -0.0028584944 -0.00019958262 -0.00030553262 0.00061107095
0.000353033 -0.00051464705 -3.2616263e-05 -6.735534e-05 -0.0010043518 -0.00042163476 0.0011398924 -0.00017875321
-0.00020721076 -0.0010044471 -0.00050207035 0.0005810407 3.869914e-05 -8.7586704e-05 0.001595002 0.00035931874
-0.0014289541 -0.00017770559 -0.00032968144 0.00081056904 0.00038858154 -0.0009594001 0.00010074354 0.0001405233
0.045611188 -0.007139925 -0.010387749 0.006490664 0.0063492595 -0.00095198344 -0.00041895738 0.0008393703
6.641741e-05 7.919784e-05 0.04123892 -0.0072850147 -0.008646108 0.005950866 0.005623282 -0.0017234416
-0.0009792583 0.0010493603 -2.6722411e-05 -0.0002704759 -0.0012172459 -0.0007564821 0.00056931225 0.0002142052
3.131572e-05 0.0032167637 0.0011938266 -0.0029132937 -0.00025519155 -0.0002160998 0.0073079467 0.002748882
-0.005663023 -0.00022053599 0.00024885236 -0.090757646 0.057095032 -0.039935887 -0.01714935 -0.026986435
0.0010604117 0.00076685846 -0.00075903744 -0.00029972717 -0.00036311554 -0.0028515465 -0.0010995356 0.0026129787
0.000109462744 6.138379e-05 0.0019144218 0.00052562874 -0.0019096032 7.6524855e-05 4.260022e-05 -0.0013670864
-0.0008590965 0.0010123652 0.0002731049 0.00015887416 0.00025578385 0.00015983959 5.7760535e-06 -9.5054165e-06
0.000113658745 0.005678152 -0.021655288 0.0186906 0.0045393915 -0.0028112766 0.0015371348 0.000418398
-0.001245239 -0.00021157379 -0.00010481591 -0.05549895 0.031915393 -0.01561156 -0.011523976 -0.010473469
-0.0031627368 -0.001497236 0.00351638 1.1416129e-05 -6.6446846e-05 -0.041241035 0.030210096 -0.017812574
-0.010105232 -0.0067882794 -0.004737081 -0.0015863079 0.004426335 -6.832302e-05 -9.35093e-05 0.0015116745
0.0008312087 -0.0016231816 -0.0001355099 -0.00016384586 5.071314e-05 -0.00020308499 -0.00024555277 5.340462e-05
1.1531424e-05 0.000109495464 -0.0001267944 -0.00021406976 0.000104578925 8.2923965e-05 -0.0003873808 2.9241499e-05
0.0005087597 4.0975456e-06 0.00010247499 0.0019168427 0.0006471909 -0.0018149185 -0.00015702404 -0.00015852595
0.005397225 -0.021534605 0.018710146 0.0045096376 -0.0027774035 0.0006602316 0.00030398005 -0.00035365706
-0.00016023719 -8.2720835e-05 0.0018260224 0.00043724955 -0.0016115226 -0.00021086985 -0.00024173327 -0.0017307397
-0.00067424134 0.0009474381 3.1532603e-05 -0.00023043228 0.0007371504 0.00018612765 -0.00029591506 -3.1148375e-06
-3.2127737e-05 0.004415748 0.0018048793 -0.003544607 -1.631237e-05 0.00040161944 0.0028270886 0.00096854987
-0.0030426995 1.0716142e-05 -9.22634e-05 0.053522743 -0.019305019 0.0019530734 0.009198376 0.009675816
-0.00017753686 -2.6929747e-05 0.00012120919 -1.2830849e-05 2.839058e-05 -0.0005017069 0.00019171374 0.0003950941
-0.00021353003 -0.00013485039 0.0054092417 -0.02153038 0.018696126 0.0045097372 -0.002779757 -0.0026225324
00000000: 27a0 7b3a 83f3 e139 6644 94ba 31f0 b037
00000010: 4117 0cb8 76df d33a 3c99 403a 2e4d cfba
00000020: 17fc f738 e28c 0d39 330f d23d d367 89bd
00000030: cc8f 703d 8c97 b53c f54c 373d 42f6 15bb
00000040: d005 9bba f847 0b3b 2c5f 1d39 3972 21b8
00000050: 7dc6 40bb c4c3 58ba 3dad 243b 4e22 48b8
00000060: 1455 93b7 c2d0 1ab9 62cd c0b8 b885 52b8
00000070: 9f8f 5ab8 7e16 3fb9 1afd f23a 051f 1c3a
00000080: ee0a cdba eed1 2bb9 5e78 d7b9 b299 35bb
00000090: 15b2 7bba a0a8 363b 1e3e b538 2c31 4139
000000a0: f5bf 973a d13f 2bb7 9e7b 41ba a8ec a638
000000b0: 1bc4 a038 18ca 343a 16b6 023a 55d9 cbb9
000000c0: d689 f2b8 63df 5b38 59eb 243b fd5e 723a
000000d0: 9455 3bbb 0d47 51b9 e52f a0b9 4730 203a
000000e0: 4a17 b939 61e9 06ba 72cd 08b8 1f41 8db8
000000f0: 74a4 83ba dc0e ddb9 7168 953a b36f 3bb9
00000100: b746 59b9 a7a7 83ba 5f9d 03ba fb50 183a
00000110: e350 2238 c1ae b7b8 630f d13a f262 bc39
00000120: be4b bbba 7b56 3ab9 18d9 acb9 5e7c 543a
00000130: 88ba cb39 4080 7bba 4746 d338 7059 1339
00000140: ccd2 3a3d 08f6 e9bb 6131 2abc a3af d43b
00000150: 730d d03b 878e 79ba 82a7 dbb9 3009 5c3a
00000160: 9349 8b38 0417 a638 24ea 283d 22b7 eebb
00000170: 68a8 0dbc 7bff c23b 8243 b83b 1be5 e1ba
00000180: 755a 80ba b08a 893a f129 e0b7 a9ce 8db9
00000190: ff8b 9fba a84e 46ba e63d 153a 459c 6039
000001a0: 0059 0338 57d0 523b 2c7a 9c3a f5ec 3ebb
000001b0: 3bcb 85b9 d998 62b9 8077 ef3b 9626 343b
000001c0: e190 b9bb ae3f 67b9 6678 8239 25df b9bd
000001d0: 7bdc 693d d093 23bd cb7c 8cbc a812 ddbc
000001e0: 83fd 8a3a 0007 493a 24fa 46ba b324 9db9
000001f0: 8b60 beb9 03e1 3abb 4b1e 90ba 823e 2b3b
00000200: 5d8f e538 2cbb 8038 56ed fa3a 59ca 093a
00000210: a74b faba f87b a038 a3ad 3238 cf2f b3ba
00000220: fd34 61ba 57b1 843a 852f 8f39 7597 2639
00000230: ba1a 8639 9d9a 2739 eccf c136 7479 1fb7
00000240: 135c ee38 cb0f ba3b 6e66 b1bc 071d 993c
00000250: 2dbf 943b 653d 38bb af79 c93a 6e5c db39
00000260: 4a37 a3ba e8d9 5db9 9dd0 dbb8 de52 63bd
00000270: b7b9 023d a1c7 7fbc 0fcf 3cbc ea98 2bbc
00000280: eb45 4fbb e73e c4ba 1173 663b e787 3f37
00000290: 6159 8bb8 5cec 28bd 2a7b f73c adeb 91bc
000002a0: 6a90 25bc 3770 debb 8439 9bbb a9eb cfba
000002b0: ca0a 913b a448 8fb8 6c1a c4b8 6123 c63a
000002c0: 79e5 593a f0c0 d4ba a917 0eb9 0ace 2bb9
000002d0: d2b4 5438 36f3 54b9 89bd 80b9 c6fe 5f38
000002e0: 1777 4137 eea0 e538 1df4 04b9 ea77 60b9
000002f0: 6251 db38 77e7 ad38 5f19 cbb9 a44b f537
00000300: 495e 053a a67d 8936 d7e7 d638 913e fb3a
00000310: 3fa8 293a 8fe2 edba d2a6 24b9 fc39 26b9
00000320: 34db b03b 5769 b0bc 0546 993c 95c5 933b
00000330: 1905 36bb 6513 2d3a 835f 9f39 0c6b b9b9
00000340: 5805 28b9 697a adb8 2557 ef3a a43e e539
00000350: ba39 d3ba f21c 5db9 c879 7db9 fdd9 e2ba
00000360: 92bf 30ba 7f5d 783a e041 0438 32a0 71b9
00000370: 533d 413a 432b 4339 0c25 9bb9 8008 51b6
00000380: e5c0 06b8 fbb1 903b b391 ec3a a34c 68bb
00000390: 8cd6 88b7 7390 d239 ad46 393b 48e6 7d3a
000003a0: 0768 47bb 7bc9 3337 897d c1b8 aa3a 5b3d
000003b0: 8f25 9ebc 45fe ff3a c9b4 163c 5087 1e3c
000003c0: 3029 3ab9 31e7 e1b7 b031 fe38 1444 57b7
000003d0: 4e28 ee37 fb84 03ba c406 4939 a224 cf39
000003e0: 08e7 5fb9 a066 0db9 0240 b13b 7b60 b0bc
000003f0: 9e28 993c 6bc6 933b 952c 36bb cbde 2bbb

exp_avg_sq f4 [128, 5]
5.398996e-05 7.576795e-05 4.802786e-05 5.508465e-06 1.1368131e-05 5.4311742e-05 8.198009e-05 5.8366928e-05
4.531303e-06 8.751107e-06 0.1348953 0.12570775 0.12085886 0.3592645 0.9035232 8.6898865e-05
9.189002e-05 0.000101900754 7.0443334e-06 1.1090491e-05 4.4879995e-05 5.6798457e-05 4.052707e-05 5.3105246e-06
1.1149342e-05 3.779773e-05 7.7653225e-05 4.296766e-05 4.2127404e-06 8.52571e-06 9.299071e-05 0.000108785374
9.874803e-05 5.4646375e-06 9.622404e-06 5.8545396e-05 7.668678e-05 5.8552196e-05 4.3274044e-06 8.504932e-06
0.00012233382 9.751944e-05 0.000161316 6.9519633e-06 1.1377215e-05 4.3219694e-05 6.63715e-05 5.2424948e-05
4.9700284e-06 1.0784906e-05 8.5307394e-05 9.3919676e-05 0.00010210307 7.4083728e-06 1.193023e-05 9.070476e-05
0.00013754747 0.00014430277 4.84281e-06 1.0715473e-05 7.6138334e-05 7.8065896e-05 8.867978e-05 5.8414034e-06
1.0554362e-05 4.5155586e-05 7.739987e-05 4.4635854e-05 4.8441116e-06 1.0178805e-05 6.95052e-05 8.5220054e-05
8.903309e-05 7.5452444e-06 1.33012145e-05 3.6669735e-05 5.9112102e-05 3.524115e-05 3.1170046e-06 6.4656833e-06
0.0050990125 0.0053597186 0.005330024 0.01535122 0.039105806 5.1729432e-05 9.14053e-05 5.8331396e-05
4.574274e-06 9.025165e-06 0.0043304916 0.004529635 0.0045101005 0.013265713 0.032853447 8.3871e-05
8.500959e-05 8.745463e-05 6.3846514e-06 1.05811805e-05 6.703953e-05 7.668505e-05 7.7049175e-05 6.427209e-06
1.0324381e-05 0.00010552486 9.505308e-05 9.946545e-05 6.7083984e-06 1.1538452e-05 5.8306712e-05 7.8305464e-05
4.9013976e-05 4.7190015e-06 8.853311e-06 0.09372159 0.08682939 0.08368704 0.238632 0.5841721
0.00012890794 0.00013256448 0.00015643465 8.178142e-06 1.3465963e-05 5.8174624e-05 7.038303e-05 4.821717e-05
4.417725e-06 8.812563e-06 5.2917603e-05 8.4702784e-05 5.3332977e-05 4.1563726e-06 8.17147e-06 9.4248004e-05
9.652977e-05 0.00012131742 7.650638e-06 1.255603e-05 3.522636e-05 8.504146e-05 4.6111516e-05 4.1149983e-06
8.196499e-06 0.007882806 0.0074409917 0.0068336427 0.0142733585 0.027815508 4.683065e-05 6.539127e-05
4.7144593e-05 5.8466126e-06 1.0808045e-05 0.028481027 0.026392324 0.025640083 0.07502358 0.17002355
0.000113292925 0.000103583174 0.00010453616 6.505324e-06 1.0994552e-05 0.022261307 0.020610012 0.019810043
0.054247137 0.11468565 7.3292395e-05 8.5095e-05 6.5280285e-05 7.064245e-06 1.2653358e-05 7.173789e-05
7.073125e-05 6.890392e-05 8.034082e-06 1.412967e-05 9.430046e-05 9.5993164e-05 0.00011144883 7.222715e-06
1.1883181e-05 5.4710246e-05 8.5363026e-05 7.27338e-05 4.7324647e-06 9.4270645e-06 5.1741034e-05 6.081019e-05
5.646766e-05 5.0561534e-06 9.631259e-06 4.3052165e-05 6.708424e-05 4.6891262e-05 4.2706033e-06 9.39746e-06
0.0077965357 0.0073641986 0.0067593553 0.014004273 0.027304262 4.824047e-05 8.880347e-05 5.579388e-05
5.2903365e-06 1.1311007e-05 6.601858e-05 8.347158e-05 7.368762e-05 6.033094e-06 1.08600325e-05 4.6432186e-05
6.16904e-05 4.29928e-05 5.5659e-06 1.1310881e-05 4.5200177e-05 7.116206e-05 4.889293e-05 6.435446e-06
1.2399051e-05 9.033961e-05 0.0001042049 7.6933786e-05 5.8077417e-06 9.889627e-06 8.1754086e-05 9.261945e-05
9.32468e-05 5.550493e-06 8.928129e-06 0.014131989 0.013363648 0.013244541 0.04311076 0.105320334
0.00013998833 0.00026256332 0.00016664984 5.206685e-06 1.0445701e-05 0.00010652415 9.545922e-05 0.0001522283
7.1353816e-06 1.2226801e-05 0.0077901394 0.0073579242 0.006753947 0.014006488 0.027308473 3.812419e-05
00000000: 4773 6238 9ce5 9e38 8671 4938 5bd5 b836
00000010: c0b9 3e37 cacc 6338 baec ab38 03cf 7438
00000020: 990b 9836 b8d1 1237 fe21 0a3e 88b9 003e
00000030: da84 f73d 84f1 b73e 4c4d 673f 793d b638
00000040: 14b5 c038 8db3 d538 5d5e ec36 4c11 3a37
00000050: 873d 3c38 e13a 6e38 9cfb 2938 0f31 b236
00000060: 0f0e 3b37 0189 1e38 c2d9 a238 2c38 3438
00000070: 2a5b 8d36 a509 0f37 0204 c338 b423 e438
00000080: f216 cf38 e15c b736 e96f 2137 a48e 7538
00000090: e7d2 a038 f195 7538 1f34 9136 68b0 0e37
000000a0: bc46 0039 5a83 cc38 ef26 2939 e944 e936
000000b0: c4e0 3e37 cb46 3538 ee30 8b38 dce2 5b38
000000c0: 38c4 a636 d2f0 3437 0fe7 b238 bef6 c438
000000d0: 2b20 d638 7095 f836 f327 4837 bf38 be38
000000e0: 9e3a 1039 fb4f 1739 6c7f a236 9bc6 3337
000000f0: 75ac 9f38 4fb7 a338 98f9 b938 4601 c436
00000100: a412 3137 7165 3d38 bd51 a238 6237 3b38
00000110: 9a8a a236 a2c5 2a37 52c3 9138 2bb8 b238
00000120: 47b7 ba38 282d fd36 4828 5f37 d4cd 1938
00000130: 23ef 7738 e6cf 1338 bb2d 5136 ccf3 d836
00000140: 9e15 a73b 94a0 af3b 7ba7 ae3b af83 7b3c
00000150: 692d 203d 0ef8 5838 d9b0 bf38 dca8 7438
00000160: b77c 9936 ca6a 1737 cce6 8d3b 556d 943b
00000170: 77c9 933b 6f58 593c 5691 063d e6e3 af38
00000180: 2d47 b238 d967 b738 bd3b d636 d385 3137
00000190: 9397 8c38 f9d1 a038 7695 a138 4ea9 d736
000001a0: e136 2d37 3a4d dd38 3c57 c738 1b98 d038
000001b0: b418 e136 4695 4137 5b8e 7438 ed37 a438
000001c0: 5b94 4d38 ea57 9e36 ae88 1437 1bf1 bf3d
000001d0: 9bd3 b13d 1c64 ab3d f25b 743e 4e8c 153f
000001e0: 762b 0739 0201 0b39 9b08 2439 da34 0937
000001f0: dfeb 6137 8700 7438 9a9a 9338 cb3c 4a38
00000200: f83b 9436 abd9 1337 d8f3 5d38 76a2 b138
00000210: d9b1 5f38 f876 8b36 3218 0937 03a7 c538
00000220: 0770 ca38 cb6b fe38 3d5b 0037 bda7 5237
00000230: 04c0 1338 4958 b238 dd67 4138 9113 8a36
00000240: b283 0937 e226 013c 90d3 f33b c0ec df3b
00000250: ceda 693c 59dd e33c 076c 4438 ac22 8938
00000260: 1fbd 4538 052e c436 3354 3537 0b51 e93c
00000270: b734 d83c 270b d23c f6a5 993d a71a 2e3e
00000280: ad97 ed38 cb3a d938 6c3a db38 4f48 da36
00000290: 3e75 3837 585d b63c 54d6 a83c ac48 a23c
000002a0: 3f32 5e3d 4fe0 ea3d 8eb4 9938 0875 b238
000002b0: 16e7 8838 6709 ed36 c249 5437 fd71 9638
000002c0: 8d55 9438 8380 9038 1fca 0637 780e 6d37
000002d0: 2dc3 c538 f04f c938 a3b9 e938 a65a f236
000002e0: e05d 4737 ae78 6538 ed04 b338 a988 9838
000002f0: 90cb 9e36 ef28 1e37 8304 5938 720e 7f38
00000300: b0d7 6c38 07a8 a936 f195 2137 e992 3438
00000310: 94af 8c38 1cad 4438 344c 8f36 c9a9 1d37
00000320: 157a ff3b 604f f13b 957d dd3b 2e72 653c
00000330: 30ad df3c cf55 4a38 003c ba38 3904 6a38
00000340: a583 b136 68c4 3d37 7573 8a38 770d af38
00000350: bd88 9a38 e26f ca36 7c33 3637 2ec0 4238
00000360: c85f 8138 2b53 3438 b8c2 ba36 ddc3 3d37
00000370: 5295 3d38 d73c 9538 6212 4d38 0ff0 d736
00000380: 8505 5037 b574 bd38 9488 da38 8357 a138
00000390: 1fe0 c236 a0eb 2537 6473 ab38 b03c c238
000003a0: 7f8d c338 5f3e ba36 06ca 1537 dc89 673c
000003b0: 34f3 5a3c a2ff 583c e994 303d 30b2 d73d
000003c0: d5c9 1239 a7a8 8939 babe 2e39 15b5 ae36
000003d0: f23f 2f37 b865 df38 4731 c838 799f 1f39
000003e0: 766c ef36 b621 4d37 6d44 ff3b be1a f13b
000003f0: 3750 dd3b 787b 653c 05b6 df3c 8ae7 1f38

exp_avg f4 [128]
-2.3472214e-05 9.813079e-05 0.033414148 4.2490985e-05 -4.1366235e-05 -0.00012055118 -0.00030740004 0.00015414087
5.6595298e-05 -3.3008135e-05 -0.00029139762 -8.544493e-05 -0.00016624431 -4.3090295e-05 -0.00024122653 0.00011339268
0.006110763 6.6882356e-05 0.0056809615 -0.000182179 0.00011128469 -0.00021273155 2.3726894e-05 -0.022021618
-0.0003139869 9.666615e-05 4.3526474e-05 0.00019989126 5.6152472e-05 0.0017925792 -0.00013831108 -0.01112436
-1.801038e-05 -0.008701799 -8.677235e-05 -0.00017471157 2.2131471e-06 0.00010694072 3.5181703e-05 -0.00014705652
0.0017924848 -0.00010307977 -0.0002120724 -0.00012796508 -6.325529e-06 0.00020921281 -6.71415e-05 0.009149708
-2.699808e-06 -0.00016498237 0.0017905624 -9.856475e-05 0.00013936768 -0.011061077 9.7854405e-05 -7.3213276e-05
-0.00019913852 0.016288718 0.014872684 8.874004e-05 3.63195e-05 -0.00016351356 -1.8984614e-06 -0.00021340793
5.402949e-05 3.9620973e-05 0.00012927272 -3.1990596e-05 0.0238613 0.024978291 -0.00020284906 -0.0043802685
1.40121265e-05 4.3765278e-05 -0.00042508787 -3.6788428e-05 -7.317038e-05 -0.004858025 -0.012138974 -0.000105904626
-4.7606638e-05 0.014603626 0.00022616851 0.00016786634 0.007765331 0.0017945172 -2.9113538e-05 -0.00018392577
0.0002565087 -4.332404e-05 -0.008197808 -4.5803445e-05 -6.0457518e-05 5.9956372e-05 -1.0841812e-05 0.00039683832
5.7222995e-05 -0.00012414264 0.00026161972 -0.00874122 0.000115779396 2.1242187e-05 -0.00013053624 -0.080297634
-0.0001554987 -0.00011848129 3.1235784e-05 0.010700649 0.009161438 0.011471296 6.632004e-05 0.009131495
4.4342778e-05 -0.01136448 -0.0002336417 0.0017910891 -0.00025380077 -5.4986085e-05 -0.00021574859 2.0265443e-05
0.00029137864 -0.0003352672 -0.000114050476 -0.0017892832 -0.0002708566 -0.00012178201 -0.0017950999 -0.100984536
00000000: 32e6 c4b7 91cb cd38 46dd 083d 5938 3238
00000010: a880 2db8 6cd0 fcb8 892a a1b9 e0a0 2139
00000020: bd60 6d38 3772 0ab8 bac6 98b9 e630 b3b8
00000030: de51 2eb9 dabb 34b8 c1f1 7cb9 3bcd ed38
00000040: cc3c c83b 3143 8c38 5c27 ba3b 4e07 3fb9
00000050: 8361 e938 b110 5fb9 1e09 c737 ae66 b4bc
00000060: 9c9e a4b9 3eb9 ca38 3290 3638 e799 5139
00000070: 4285 6b38 faf4 ea3a 9907 11b9 f342 36bc
00000080: ff14 97b7 fe91 0ebc 8df9 b5b8 c832 37b9
00000090: 9485 1436 5d45 e038 1190 1338 2f33 1ab9
000000a0: cff1 ea3a 882c d8b8 c05f 5eb9 5d2e 06b9
000000b0: e13f d4b6 2360 5b39 51ce 8cb8 a8e8 153c
000000c0: 592e 35b6 1eff 2cb9 4eb1 ea3a 8cb4 ceb8
000000d0: 3a23 1239 8539 35bc 2f37 cd38 148a 99b8
000000e0: d7cf 50b9 eb6f 853c 8fac 733c f219 ba38
000000f0: c455 1838 d674 2bb9 a3ce feb5 41c6 5fb9
00000100: b99d 6238 b22e 2638 628d 0739 a42d 06b8
00000110: c678 c33c 469f cc3c e1b3 54b9 5b88 8fbb
00000120: a015 6b37 9c90 3738 54de deb9 464d 1ab8
00000130: 0c73 99b8 1130 9fbb 8ce2 46bc 1d19 deb8
00000140: 3dad 47b8 0c44 6f3c a627 6d39 4705 3039
00000150: 5174 fe3b 0136 eb3a d938 f4b7 33dc 40b9
00000160: 047c 8639 d5b6 35b8 1950 06bc 131d 40b8
00000170: c493 7db8 aa79 7b38 3ae5 35b7 bd0e d039
00000180: b902 7038 492c 02b9 012a 8939 5637 0fbc
00000190: 97ce f238 4031 b237 8ee0 08b9 1673 a4bd
000001a0: 5d0d 23b9 2979 f8b8 2b03 0338 c651 2f3c
000001b0: db19 163c 1af2 3b3c 4d15 8b38 449c 153c
000001c0: b2fc 3938 1532 3abc b7fd 74b9 fac2 ea3a
000001d0: 9010 85b9 dca0 66b8 923a 62b9 b5ff a937
000001e0: 2ec4 9839 cdc6 afb9 622e efb8 6286 eaba
000001f0: c201 8eb9 3865 ffb8 8f49 ebba fbd0 cebd
