hoomd_organics/tests/library/best_model.pth (torch, 7343 bytes, 5 tensors)

net.0.weight f4 [32, 4]
0	0xba01ad40	-0.0004946776
1	0x3a4e8c43	0.0007879177
2	0xbb236d15	-0.0024936844
3	0xba998a96	-0.0011714275
4	0xbad5acc8	-0.0016302103
5	0x38d2f3f4	0.0001005902
6	0xbb41d72e	-0.002957772
7	0x3b1db2bd	0.0024062835
8	0xba521349	-0.0008013738
9	0x3b1d51fb	0.0024005163
10	0x3b9cb846	0.0047827093
11	0x3b449b70	0.0029999875
12	0x3bb89817	0.005633365
13	0xba732f15	-0.000927673
14	0x3afde975	0.0019371944
15	0x4106a810	8.416031
16	0x3c358bb8	0.011080675
17	0x39f8a041	0.00047421645
18	0x3bd6149a	0.0065332176
19	0xbf70273f	-0.93809885
20	0xbba72214	-0.005100498
21	0x3ad8f9c1	0.0016553925
22	0xbaf18ffd	-0.0018429753
23	0x3f5cff32	0.863269
24	0xbadb6a44	-0.0016740044
25	0xba1016b0	-0.0005496545
26	0x3b5a7be8	0.0033338014
27	0x3a7ab4f9	0.000956371
28	0xbc073c49	-0.008254119
29	0xbadf35d3	-0.0017029591
30	0xbb4f730f	-0.0031654274
31	0x3f64ecfc	0.8942411
32	0xbc064ef1	-0.008197532
33	0xbadbf25a	-0.00167806
34	0xbb4c66b0	-0.0031189136
35	0x3f64b62d	0.8934048
36	0xba9b9fa0	-0.0011873133
37	0xba3348c8	-0.00068391534
38	0x3a71cb86	0.0009223748
39	0x3b5e684a	0.0033936673
40	0x3b34e0bd	0.0027599775
41	0x39037c0f	0.00012539349
42	0xb9c9db62	-0.0003850116
43	0x3a0c2226	0.00053456647
44	0xb9ac7d4d	-0.00032899753
45	0x3ae937f7	0.0017793168
46	0xbb842a91	-0.0040333946
47	0xbbe05dcd	-0.0068471194
48	0xba44dbce	-0.000750956
49	0x3a5ed4ab	0.0008500318
50	0xba7a5bcc	-0.0009550422
51	0xbac3b501	-0.0014931263
52	0x3baf8ba9	0.005357225
53	0x398c2445	0.00026729904
54	0xbb078328	-0.002067754
55	0x4004a454	2.0725298
56	0x3bd48f64	0.00648682
57	0x39df1217	0.00042547352
58	0x3b112a20	0.0022150353
59	0xbf5fc749	-0.8741346
60	0x3bd74c94	0.006570408
61	0x3a05f321	0.00051097764
62	0x3b131db6	0.002244813
63	0xbf5ff7ab	-0.87487286
64	0x3ba51543	0.005037935
65	0xbaecde93	-0.0018071703
66	0x3aefde57	0.0018300515
67	0xbf5cde9c	-0.86277175
68	0xbba92671	-0.0051620533
69	0x3ac6c156	0.001516382
70	0xbaf30edb	-0.0018543856
71	0x3f5d1e52	0.8637439
72	0xbb260971	-0.0025335217
73	0xb9fda384	-0.0004837775
74	0x3b137925	0.0022502628
75	0x3a9baaad	0.0011876427
76	0x3ae06735	0.0017120602
77	0x39cf85bd	0.0003958176
78	0xbb60e285	-0.0034314704
79	0xbb4b0df7	-0.0030983665
80	0x3b0b69d4	0.0021272795
81	0x39e8bdef	0.00044392
82	0xbb0219f4	-0.0019851895
83	0x397f3c6e	0.00024341207
84	0xbb2470dc	-0.0025091683
85	0x3a64dc4e	0.0008730338
86	0x3b8ed15a	0.0043584527
87	0x3b4c64ec	0.0031188084
88	0xbb97148d	-0.004610604
89	0xbab8cf35	-0.0014099838
90	0xbb4f36c6	-0.003161834
91	0x3b165a90	0.0022942163
92	0xbabbe06b	-0.001433385
93	0xb9872152	-0.00025774032
94	0x3984cc44	0.00025329192
95	0xbd0bc9f7	-0.034128156
96	0xb963ef83	-0.00021737632
97	0x3aced8d9	0.0015781178
98	0xbaebfbc1	-0.0018004106
99	0x3b550e00	0.0032509565
100	0x3a9212d3	0.0011144526
101	0x3a30602c	0.0006728198
102	0x3a99efcb	0.0011744438
103	0x3b64942a	0.0034878352
104	0x3c0e0c95	0.008669992
105	0x3af17da9	0.001842429
106	0x3b68de71	0.0035532976
107	0xbf6699ef	-0.90078634
108	0xbaacbc82	-0.0013178738
109	0x3a30fa62	0.0006751177
110	0xbb3694af	-0.0027859618
111	0x3b4bdbcb	0.0031106349
112	0xbdebae24	-0.11507824
113	0xbc3b8bd3	-0.011446911
114	0xbe149771	-0.14510895
115	0x3f8640ba	1.0488503
116	0xbb3cd605	-0.002881409
117	0x3a50af4f	0.00079606933
118	0x3b271efc	0.0025500646
119	0x39b79fc0	0.00035023503
120	0xbb91e900	-0.0044528246
121	0xb9b9b888	-0.00035423436
122	0xbb0e6ae8	-0.0021731202
123	0xba865f57	-0.0010251802
124	0x3dce7aff	0.100820534
125	0x3b73feed	0.0037230805
126	0x3e0bce9d	0.13653035
127	0x3f876752	1.0578406

net.0.bias f4 [32]
0	0x3ce31b3e	0.027722951
1	0xbc42c120	-0.011886865
2	0xbbd3dd36	-0.0064655794
3	0xc0e5b414	-7.178232
4	0xbf2e94ec	-0.68195987
5	0x3f2fb17a	0.6863018
6	0x3bd192c8	0.0063956715
7	0x3f2f3d6f	0.68453115
8	0x3f2f3ead	0.6845501
9	0x3b22714a	0.0024786764
10	0x3cf30fea	0.029670674
11	0x3bafce69	0.005365182
12	0x3c88e06d	0.016708577
13	0xbf967921	-1.1755716
14	0xbf2f6e90	-0.6852808
15	0xbf2f6b91	-0.6852351
16	0xbf2fb5c2	-0.68636715
17	0x3f2fad77	0.6862406
18	0xbcbfc7da	-0.023410726
19	0x39f03ed5	0.0004582318
20	0x3c13c41b	0.009018923
21	0xbbbea06f	-0.005817465
22	0xbc493b3d	-0.01228219
23	0xbebbd18a	-0.36683303
24	0xbc246c12	-0.010035532
25	0x3c9bf9e5	0.019040057
26	0xbf2f31e6	-0.68435514
27	0x3c2543a1	0.010086925
28	0x3f27984e	0.65466774
29	0xbc824947	-0.015904082
30	0xba83dde6	-0.0010060638
31	0x3f285a63	0.6576292

net.2.weight f4 [32, 32]
0	0x3bd13943	0.006385
1	0xbbec87c8	-0.007218335
2	0xbb6206fa	-0.0034489022
3	0xbf3b8068	-0.7324281
4	0xbcd0c54d	-0.025484705
5	0x3c711543	0.014714542
6	0x3c815b20	0.015790522
7	0x3c9283a5	0.017885039
8	0x3c91934b	0.01777043
9	0x3b47dbb7	0.003049595
10	0x3c714b00	0.014727354
11	0xb9ae8a0b	-0.00033290716
12	0xbba9f309	-0.0051864428
13	0x3eb191d3	0.34681568
14	0xbc7e2ace	-0.015513135
15	0xbc7f5490	-0.015584126
16	0xbc70c1db	-0.014694656
17	0x3c716ca3	0.014735374
18	0x3bb2c9a8	0.005456168
19	0x3b7c43cf	0.0038492566
20	0x3bdee47b	0.0068021393
21	0x3c6c03cc	0.014405202
22	0xbc1fe9ef	-0.009760364
23	0x3c6b1040	0.014347136
24	0xbbd3da98	-0.0064652674
25	0x3c3de3c2	0.011589946
26	0xbc9a3096	-0.018821996
27	0x3b5c4bb8	0.0033614468
28	0x3d5433de	0.051807277
29	0xbc5ca37a	-0.01346671
30	0xbba0ae54	-0.004903594
31	0x3d7600db	0.06005941
32	0x3c1d6a6f	0.009607895
33	0xbbbf9dba	-0.00584766
34	0xba8bfbdc	-0.0010679918
35	0xbf3e048f	-0.74225706
36	0xbca2ec89	-0.01988818
37	0x3bb6d3ea	0.0055794613
38	0x3be68308	0.007034663
39	0x3c315da1	0.0108255455
40	0x3c2ef321	0.010678084
41	0x3befa521	0.007313386
42	0x3ccb8f08	0.024848476
43	0xbc3f1f99	-0.011665248
44	0x3b0ab784	0.0021166513
45	0x3ebc4dad	0.36778012
46	0xbbf38788	-0.007431928
47	0xbbf7808c	-0.007553166
48	0xbbb3df2d	-0.005489251
49	0x3bb9a672	0.005665594
50	0xbc29fc95	-0.010375162
51	0xbc106581	-0.008813263
52	0x3c90c3d7	0.017671509
53	0x3a0ef5ac	0.0005453478
54	0xbc6f4ae0	-0.014605254
55	0x3b4cbcd0	0.003124047
56	0xb9bdf2a2	-0.00036229665
57	0x3c9ba146	0.0189978
58	0xbc44bcf0	-0.012007937
59	0x3bc25b1d	0.0059312717
60	0x3d7d1446	0.061786912
61	0xbcbfd2c6	-0.023415934
62	0xbc1e9b85	-0.009680633
63	0x3d32b89f	0.0436331
64	0x3b9f0357	0.004852693
65	0x3c497015	0.012294789
66	0xbb2d63da	-0.0026457221
67	0x3f408c97	0.75214523
68	0x3cd51983	0.026013141
69	0xbc026e89	-0.007960924
70	0xbc6478bb	-0.0139448
71	0xbc6d952f	-0.0145009
72	0xbc6a5bed	-0.014304143
73	0x3a57a578	0.0008226256
74	0x3c75aab4	0.014994312
75	0x3a73f319	0.0009305939
76	0x39d56d4b	0.00040707955
77	0xbeb99410	-0.36245775
78	0x3c2515b4	0.010075975
79	0x3c278d19	0.010226511
80	0x3c00e9bc	0.007868227
81	0xbc03e345	-0.008049791
82	0xba49fb84	-0.000770502
83	0x3ba0e122	0.0049096504
84	0x3bc6489a	0.0060511352
85	0xbb026506	-0.001989664
86	0xbbd9504a	-0.0066318857
87	0xbc8fcc24	-0.017553397
88	0x3c29c439	0.0103617245
89	0x3babfec7	0.0052488777
90	0x3c83aa56	0.016072433
91	0x3b1f3879	0.0024295135
92	0xbd9af980	-0.075671196
93	0x3b84e1c1	0.0040552323
94	0xbb2775a1	-0.002555229
95	0xbd51d3c1	-0.051227335
96	0x3b68712d	0.0035467849
97	0x3c7661de	0.015037982
98	0x3b08cb19	0.0020873009
99	0x3f42352d	0.7586239
100	0x3c6918f5	0.014227142
101	0xba922622	-0.001115028
102	0x3c1fbe32	0.009749936
103	0xbbbcb6ab	-0.0057590804
104	0xbbb80484	-0.0056157727
105	0x3c46a9c1	0.012125433
106	0xbaed9e33	-0.0018128812
107	0xbbba90a7	-0.0056935134
108	0xbc23efd8	-0.010005914
109	0xbebd976c	-0.37029588
110	0x3b26cec4	0.0025452832
111	0x3b2dd1a5	0.0026522663
112	0x3a8ae941	0.001059808
113	0xba993cd0	-0.0011691097
114	0xbb2840ff	-0.0025673506
115	0xbc013955	-0.007887204
116	0x3c761b21	0.0150211165
117	0x3c01a146	0.007911986
118	0x3c21c766	0.0098742
119	0xbc04c49e	-0.008103518
120	0x3bd64fef	0.0065402905
121	0x3aa06b4a	0.0012239006
122	0x3be2404b	0.006904637
123	0x3c3c3038	0.011486106
124	0xbd448a5e	-0.04798352
125	0xbc50b7bc	-0.012739118
126	0x3c195852	0.009359436
127	0xbd30c549	-0.043156896
128	0x3caa7e22	0.020812098
129	0x3cab81c1	0.020935895
130	0xbc030b44	-0.007998291
131	0xbf4af21c	-0.7927568
132	0xbcb1b2a9	-0.021691637
133	0xb90b4b6d	-0.00013284171
134	0xb99480a5	-0.00028324607
135	0x3c021048	0.007938452
136	0x3bfc5686	0.007700744
137	0x3c454f6c	0.012042861
138	0x3c310d7f	0.01080644
139	0x397e25de	0.00024237434
140	0xbacd4711	-0.0015661438
141	0x3eb9111a	0.3614586
142	0xbb253b86	-0.002521248
143	0xbb317ee5	-0.0027083692
144	0x3982b347	0.00024929104
145	0xb7aea97f	-2.0821344e-05
146	0xbbde04b6	-0.006775464
147	0xbb9fdea5	-0.004878836
148	0x399af382	0.00029554596
149	0xbc184d0f	-0.009295716
150	0x3c2cc42f	0.010544821
151	0x3d18c80d	0.03730016
152	0xbc439906	-0.011938339
153	0xb8cb34f1	-9.6896554e-05
154	0xbc21082a	-0.009828607
155	0x3b18f5d6	0.002333989
156	0x3d90ffc8	0.070800364
157	0xbc027884	-0.0079633035
158	0xbbca1324	-0.0061668325
159	0x3d4ec348	0.050479203
160	0xbb5d43f4	-0.0033762427
161	0xbabe987a	-0.0014541291
162	0xbc4cfe47	-0.012511796
163	0x3f3b5c2e	0.7318753
164	0x3ca3afa0	0.019981205
165	0xbae2d7e6	-0.0017306774
166	0xbbe8cfff	-0.007104873
167	0xbc168d2a	-0.00918893
168	0xbc134c3e	-0.0089903455
169	0x3bd0fb66	0.0063776253
170	0x3bd9c8f1	0.0066462685
171	0xbb75b897	-0.0037494057
172	0x3b3ac41c	0.0028498238
173	0xbeb45c79	-0.352268
174	0x3b9108c6	0.0044260947
175	0x3b96d197	0.004602622
176	0x3ad1a5c9	0.0015994842
177	0xbaf32bb5	-0.0018552454
178	0xbbc11e92	-0.005893537
179	0x3c21b511	0.00986983
180	0x3c1f78d8	0.009733401
181	0xbbe4fb43	-0.0069879605
182	0xbbb4c145	-0.0055162036
183	0xbcc9aaec	-0.024617635
184	0xbc1cf803	-0.009580615
185	0xbbd9384d	-0.006629026
186	0x3c301528	0.010747232
187	0xbb98185b	-0.0046415753
188	0xbd856edc	-0.065152854
189	0xbbc78f2a	-0.0060900645
190	0x3a367b95	0.0006961164
191	0xbd3677f9	-0.04454801
192	0xbb109ed6	-0.002206733
193	0x3c841fc4	0.016128428
194	0x3c75a0b2	0.014991926
195	0x3f4776f0	0.7791586
196	0x3c8d094d	0.017216349
197	0x3aa31e79	0.0012444995
198	0xbc4d1d26	-0.012519157
199	0xbba61609	-0.0050685448
200	0xbb9f98a6	-0.004870492
201	0x3c3d149e	0.01154056
202	0xbb5ecd00	-0.0033996701
203	0xbbd19856	-0.0063963337
204	0xbbc6874f	-0.0060586105
205	0xbec5ec27	-0.38656732
206	0x3a382043	0.00070238503
207	0x3a5e05eb	0.000846951
208	0xbaad56df	-0.0013224742
209	0x3a9937bf	0.0011689587
210	0x3bbc60f0	0.0057488605
211	0xbb4c6c28	-0.0031192396
212	0xbbf96531	-0.00761094
213	0xbbb16045	-0.0054130876
214	0x3c4807c6	0.012208885
215	0xbb29e93d	-0.0025926374
216	0x3b8aae54	0.0042322073
217	0xbc1cce14	-0.009570617
218	0x3bda3a3e	0.006659775
219	0xba8801d9	-0.0010376527
220	0xbd8d8315	-0.069097675
221	0x3c28ea1e	0.010309724
222	0xbae4c98c	-0.0017455085
223	0xbd3aafa0	-0.045577645
224	0x3c3a5b15	0.011374255
225	0xbc06b685	-0.008222227
226	0xbcbd466d	-0.02310487
227	0x3f45107e	0.7697829
228	0x3c8c9400	0.017160416
229	0xbb39ec12	-0.0028369469
230	0xbbb8c427	-0.0056386176
231	0xbbfa8392	-0.007645079
232	0xbbf57bf4	-0.007491583
233	0xbc039da0	-0.008033186
234	0x3a3f2f07	0.00072930794
235	0x3c0577b6	0.008146217
236	0x3c98de29	0.018660622
237	0xbeb9b70a	-0.3627246
238	0x3b8bdbff	0.004268169
239	0x3b8f7e3a	0.004379061
240	0x3b368ec3	0.0027856089
241	0xbb3d3c8f	-0.0028875207
242	0xbca820c8	-0.020523444
243	0x3c44b461	0.012005896
244	0x3c9ce8c6	0.019153964
245	0xbbe6f7e4	-0.007048594
246	0xbc50000a	-0.012695322
247	0xbcbaac67	-0.022787286
248	0xbc2b2fb9	-0.01044839
249	0x391da1ca	0.00015032958
250	0x3c117b71	0.008879528
251	0xba5ac3a6	-0.0008345194
252	0xbd3bde57	-0.045866337
253	0xbc4e0599	-0.012574577
254	0xbbb42b79	-0.0054983464
255	0xbd69061b	-0.05689059

net.2.bias f4 [32]
0	0x3d184fbd	0.03718542
1	0x3d558794	0.05213125
2	0xbda96e2c	-0.08272967
3	0xbd23c44a	-0.039982118
4	0x3ddf3c64	0.109001905
5	0xbd719339	-0.058978293
6	0xbdb43ace	-0.088002786
7	0xbd6cd23c	-0.057817683
8	0x3d764087	0.06012013
9	0x3dd54474	0.10413447
10	0x3d8b0219	0.067875095
11	0xbd68fd8b	-0.056882422
12	0xbd7d32c6	-0.061816
13	0xbd2fe40f	-0.042942103
14	0x3d27a371	0.040927354
15	0x3d06e406	0.032932304
16	0x3d59f8e1	0.053215865
17	0x3da5864d	0.080822565
18	0xbd165586	-0.036702655
19	0xbd647dd0	-0.055784047
20	0x3d8c4bf3	0.06850424
21	0xbdd60612	-0.104503766
22	0xbdab1734	-0.08354035
23	0xbd8700a0	-0.06591916
24	0xbd4aee65	-0.049543757
25	0xbd94e634	-0.0727047
26	0xbd52ce2d	-0.051466156
27	0xbd2bde76	-0.041960202
28	0x3d90a6d3	0.07063069
29	0xbd847b31	-0.064688094
30	0xbce222de	-0.027604517
31	0x3d458f52	0.048232384

net.5.weight f4 [1, 32]
0	0x3f03990b	0.514054
1	0x3f08ff28	0.5351434
2	0xbf0e1ee5	-0.5551589
3	0xbf0eb62c	-0.5574672
4	0x3f1899c7	0.59609646
5	0xbf040b74	-0.51579976
6	0xbf157a96	-0.58390176
7	0xbf103fe5	-0.56347495
8	0x3f043bd9	0.5165382
9	0x3f1288ee	0.5724019
10	0x3f06943d	0.52569944
11	0xbf0e0881	-0.55481726
12	0xbf12f038	-0.57397795
13	0xbf0b7686	-0.5447773
14	0x3f0419e9	0.51602036
15	0x3f05988e	0.52185905
16	0x3f0d053e	0.55086124
17	0x3f154692	0.58310807
18	0xbf056564	-0.52107835
19	0xbf0b4643	-0.54404086
20	0x3f0ba218	0.5454421
21	0xbf12e1ef	-0.57376
22	0xbf098ca1	-0.5373021
23	0xbf01ccb6	-0.5070299
24	0xbf0bc1f9	-0.54592854
25	0xbf0c8a4a	-0.5489851
26	0xbf09c908	-0.53822374
27	0xbf01a0b3	-0.5063583
28	0x3f0e7a5d	0.5565546
29	0xbf05d746	-0.52281606
30	0xbefd0a86	-0.4942209
31	0x3f071a90	0.52774906
